2023 Fall Semester/AI Toolkits/course projects/project1/checkpoint.pth (torch, 33715 bytes, 4 tensors)

weight f4 [10, 784]
0	0xbbdc3f0c	-0.006721383
1	0xbbdcc648	-0.006737504
2	0xbd20aea4	-0.03922905
3	0xbd04c707	-0.03241637
4	0xbd4dc758	-0.050238937
5	0xbd55fea9	-0.052244816
6	0x3c5867d5	0.013208349
7	0x3b27cb13	0.002560322
8	0xbc3b1ec5	-0.01142091
9	0x3ca92779	0.020648705
10	0xbcd836e6	-0.026393365
11	0x3c275ed0	0.010215476
12	0xbcdf9642	-0.027293328
13	0xbdd7e6f0	-0.10542095
14	0xbdbc2247	-0.091862254
15	0xbd9e6ae3	-0.07735231
16	0x3d4e2e27	0.050336983
17	0x3cda339f	0.026635943
18	0xbb532c12	-0.0032222313
19	0xbcbc59de	-0.02299207
20	0x3bf39c1c	0.007434381
21	0xbd07f55e	-0.033192985
22	0xbc33ebaa	-0.01098148
23	0xbc8614e8	-0.01636739
24	0x3c99fb81	0.018796684
25	0xbbf67463	-0.0075211986
26	0x3bde7fe4	0.006790148
27	0x3987d277	0.00025906015
28	0x3ca9d823	0.020732945
29	0xbcd347d5	-0.025791088
30	0x3c9cd4dd	0.01914447
31	0x3c249534	0.010045338
32	0xbd0c0d28	-0.034192234
33	0xbc92f2f2	-0.017938111
34	0xbc82905b	-0.015937975
35	0xbcf2faff	-0.0296607
36	0xbc9abec4	-0.018889792
37	0x3c777431	0.015103386
38	0x3c5631e4	0.013073418
39	0x3c62dacb	0.01384611
40	0xbc840b8a	-0.016118784
41	0x3c49490c	0.012285482
42	0x3d044c1c	0.032299146
43	0xbc1976f3	-0.009366739
44	0x3c8d437b	0.017244091
45	0x3d604249	0.054750714
46	0x3d1ea784	0.038733974
47	0x3cbb39e8	0.02285476
48	0x3d230536	0.03979989
49	0x3d3c3578	0.04594943
50	0xbcffabb4	-0.031209804
51	0x3bd166e2	0.0063904384
52	0x3bca22be	0.0061686924
53	0xbd332d53	-0.043744396
54	0xbd3f84f8	-0.04675767
55	0x3af386e0	0.0018579625
56	0x3bdaff07	0.0066832337
57	0x3ca2ad27	0.019857956
58	0xbc20b412	-0.009808557
59	0x3c890379	0.016725289
60	0xbd2399ce	-0.0399416
61	0x3c43738d	0.011929405
62	0xbd01015a	-0.03149543
63	0x3d2ae5d8	0.041723102
64	0x3a2121ed	0.0006146718
65	0x3c5ab1f1	0.013348089
66	0xbb0829a1	-0.0020776766
67	0xbd313215	-0.043260653
68	0x3b853f94	0.004066417
69	0x3cd36d9e	0.025809105
70	0x3cd859d1	0.026410015
71	0xbac9e79b	-0.0015404107
72	0xbc31816a	-0.010834077
73	0xbcb6b703	-0.022304064
74	0xbcac53f2	-0.021036122
75	0x3d413e24	0.047178403
76	0x3d614a0f	0.05500227
77	0x3d81798a	0.0632201
78	0x3cab4e56	0.020911377
79	0xbb6a35bc	-0.0035737595
80	0x3c4b574c	0.01241095
81	0x3ca34b0a	0.019933242
82	0x3b3dcc28	0.0028960798
83	0xbd244db0	-0.04011315
84	0xbc74a267	-0.014931298
85	0xbc466a3b	-0.012110288
86	0x3c65069f	0.013978629
87	0x3bd616d0	0.006533481
88	0xbcd4be0e	-0.025969531
89	0xb97add49	-0.00023924293
90	0x3d34bbbb	0.044124346
91	0x3c0b061f	0.008485346
92	0x3a396b43	0.0007073173
93	0x3d10bd78	0.03533694
94	0x3cf16b29	0.029470043
95	0xbce69707	-0.028148187
96	0xbd105060	-0.0352329
97	0xba22a579	-0.0006204467
98	0x3cac6367	0.021043492
99	0xbd07e409	-0.033176456
100	0xbccc1c95	-0.024915973
101	0x3c767f64	0.015045021
102	0x3d2817e0	0.041038394
103	0x3b82192b	0.0039702854
104	0xbc4407c4	-0.011964742
105	0x3d655e3a	0.055998065
106	0xbb0ec52b	-0.0021785002
107	0x3d2c0344	0.0419953
108	0x3ca303a8	0.019899204
109	0xbc88cf8d	-0.01670053
110	0x39c5d4af	0.0003773323
111	0xbc37f7ab	-0.011228482
112	0xbd26b602	-0.04070092
113	0xbc80484a	-0.01565947
114	0xbc08eb3b	-0.008356865
115	0x3ccba941	0.02486098
116	0x3cfaaea8	0.03060086
117	0x3d086e62	0.033308394
118	0x3cf8a701	0.030353071
119	0xbc80d31d	-0.015725667
120	0xbc0b270a	-0.008493194
121	0x3b015809	0.001973631
122	0x37d7efbd	2.5741634e-05
123	0xbcb5707a	-0.02214836
124	0x3ccd6289	0.0250714
125	0xbc0610aa	-0.008182684
126	0xbc7b80cf	-0.015350535
127	0x3bcbcd71	0.006219559
128	0xbd0b13da	-0.03395448
129	0xbbddc77c	-0.006768165
130	0x3bed6b9b	0.0072454936
131	0x3d1c70e8	0.038193613
132	0x3c19ac98	0.009379528
133	0x3ccb211b	0.02479606
134	0x3d7fcdbc	0.062452063
135	0x3d351374	0.044208005
136	0x3d987de5	0.074458875
137	0xbc038197	-0.008026502
138	0x3b94b928	0.004538674
139	0xbcaf5df4	-0.021407105
140	0xbbd0c860	-0.006371543
141	0x3ab123d2	0.0013514704
142	0xbd0fc2bc	-0.035097823
143	0x3c94e3fb	0.018175116
144	0x3d979e9a	0.07403298
145	0x3d77105a	0.06031833
146	0x3ccaad1d	0.02474075
147	0xbd12ff81	-0.0358882
148	0x3c973276	0.018456679
149	0x3c801b40	0.015637994
150	0xbce406b0	-0.02783522
151	0x3bb8861b	0.005631221
152	0xbd1f6fca	-0.03892497
153	0x3891bf62	6.9497866e-05
154	0xbc9722bc	-0.01844918
155	0xbce5b26e	-0.028039183
156	0xbd2e196e	-0.04250472
157	0x3d0986cb	0.033575814
158	0x3c80ea53	0.015736734
159	0x3c88f064	0.01671619
160	0xbb81d017	-0.003961574
161	0x3b621c76	0.0034501827
162	0x3cf342ac	0.029694878
163	0x3d5bfa77	0.05370566
164	0x3c2a55d6	0.010396441
165	0xbb9e2e53	-0.0048272996
166	0x3b415012	0.0029497189
167	0x3ca9a7c6	0.020709883
168	0xbc9dba9c	-0.019254021
169	0xbd0b6705	-0.034033794
170	0x3d45a189	0.048249755
171	0x3d4c5db3	0.049894046
172	0x3d84adce	0.06478463
173	0x3d3bdd67	0.045865443
174	0x3cd97ac2	0.026547793
175	0xbc033850	-0.008009031
176	0x3d76e697	0.0602785
177	0x3c6d2b15	0.014475604
178	0xbc835cbc	-0.01603543
179	0x3d14e44a	0.036350526
180	0x3b85b07b	0.004079876
181	0x3bd56a8a	0.0065129446
182	0xbd127039	-0.035751555
183	0xbc7042f9	-0.014664405
184	0xbbdf637f	-0.006817281
185	0x3b82b82a	0.003989239
186	0x3cd00233	0.025391674
187	0x3d23ec78	0.040020436
188	0x3c94c1a3	0.01815874
189	0xbc5295a3	-0.012853059
190	0x3d5b787e	0.053581707
191	0x3d80f3ef	0.06296527
192	0x3d8a1141	0.06741572
193	0xbb87f48f	-0.0041490267
194	0x3b5e088c	0.0033879606
195	0x3c266b18	0.010157369
196	0xbc524fee	-0.01283644
197	0x3c464dea	0.012103537
198	0x3d2c8508	0.042119056
199	0xba1e8f12	-0.0006048541
200	0x3d7f23a8	0.062289864
201	0x3c682969	0.014170029
202	0x3d3acc22	0.045604832
203	0x3d1a1246	0.037615083
204	0x3d1e4219	0.038637254
205	0x3cd4b2c4	0.025964148
206	0xbd17ad24	-0.037030354
207	0xba400ca6	-0.00073261035
208	0x3c91bbb6	0.017789703
209	0x3c2d0506	0.01056028
210	0xbc2bc864	-0.010484789
211	0xbc138b6c	-0.009005409
212	0xbc0a2903	-0.0084326295
213	0x3d0889c9	0.033334527
214	0x3cdb089d	0.026737506
215	0x3d8ddfc3	0.06927445
216	0x3d0d131c	0.034442052
217	0x3b8e93f8	0.0043511353
218	0x3d7530aa	0.059860863
219	0x3d93ad01	0.07210732
220	0x3d83021b	0.06396886
221	0xbc0fc9ec	-0.008776169
222	0xbd016397	-0.031589117
223	0xbcacad6d	-0.02107879
224	0xb9bac1c0	-0.0003562104
225	0xbc81d114	-0.015846767
226	0x3d585d80	0.052823544
227	0x3c236ff3	0.009975421
228	0x3d6c006d	0.057617594
229	0x3dae2e95	0.085049786
230	0x3d2d0a40	0.042246103
231	0x3cafa76d	0.02144214
232	0x3d74f033	0.059799384
233	0x3d822499	0.06354637
234	0x3ca4e0c7	0.020126713
235	0xbbe5a62b	-0.007008334
236	0x3a23161c	0.0006221251
237	0xbd02b617	-0.031911936
238	0xbca57f99	-0.020202445
239	0x3cec37ea	0.028835256
240	0xbccd60db	-0.025070598
241	0x3c84ae89	0.016196506
242	0x3c8a9bb2	0.016919944
243	0x3d84f99d	0.064929225
244	0x3c780c1d	0.015139607
245	0x3d222deb	0.039594572
246	0x3d34964e	0.044088654
247	0x3d45d4b7	0.048298564
248	0x3c78548c	0.015156876
249	0x3c8ea48f	0.017412452
250	0xbcd33ea6	-0.025786709
251	0xbbfa74e3	-0.0076433285
252	0xbd1c0195	-0.038087446
253	0xbc5f1006	-0.01361466
254	0x3b115cf3	0.0022180646
255	0x3ca43d60	0.020048797

bias f4 [10]
0	0x3c16147d	0.009160158
1	0x3c313376	0.010815492
2	0xbca3cfb6	-0.019996505
3	0xbcf41f6e	-0.029800143
4	0xbcc1bdc6	-0.023650061
5	0xbc0273e5	-0.007962202
6	0xbc4d2d29	-0.012522974
7	0x3b0ba6aa	0.0021309056
8	0x3c9db397	0.019250674
9	0x3ab25fec	0.0013608909

model.0.weight f4 [10, 784]
0	0xbbdc3f0c	-0.006721383
1	0xbbdcc648	-0.006737504
2	0xbd20aea4	-0.03922905
3	0xbd04c707	-0.03241637
4	0xbd4dc758	-0.050238937
5	0xbd55fea9	-0.052244816
6	0x3c5867d5	0.013208349
7	0x3b27cb13	0.002560322
8	0xbc3b1ec5	-0.01142091
9	0x3ca92779	0.020648705
10	0xbcd836e6	-0.026393365
11	0x3c275ed0	0.010215476
12	0xbcdf9642	-0.027293328
13	0xbdd7e6f0	-0.10542095
14	0xbdbc2247	-0.091862254
15	0xbd9e6ae3	-0.07735231
16	0x3d4e2e27	0.050336983
17	0x3cda339f	0.026635943
18	0xbb532c12	-0.0032222313
19	0xbcbc59de	-0.02299207
20	0x3bf39c1c	0.007434381
21	0xbd07f55e	-0.033192985
22	0xbc33ebaa	-0.01098148
23	0xbc8614e8	-0.01636739
24	0x3c99fb81	0.018796684
25	0xbbf67463	-0.0075211986
26	0x3bde7fe4	0.006790148
27	0x3987d277	0.00025906015
28	0x3ca9d823	0.020732945
29	0xbcd347d5	-0.025791088
30	0x3c9cd4dd	0.01914447
31	0x3c249534	0.010045338
32	0xbd0c0d28	-0.034192234
33	0xbc92f2f2	-0.017938111
34	0xbc82905b	-0.015937975
35	0xbcf2faff	-0.0296607
36	0xbc9abec4	-0.018889792
37	0x3c777431	0.015103386
38	0x3c5631e4	0.013073418
39	0x3c62dacb	0.01384611
40	0xbc840b8a	-0.016118784
41	0x3c49490c	0.012285482
42	0x3d044c1c	0.032299146
43	0xbc1976f3	-0.009366739
44	0x3c8d437b	0.017244091
45	0x3d604249	0.054750714
46	0x3d1ea784	0.038733974
47	0x3cbb39e8	0.02285476
48	0x3d230536	0.03979989
49	0x3d3c3578	0.04594943
50	0xbcffabb4	-0.031209804
51	0x3bd166e2	0.0063904384
52	0x3bca22be	0.0061686924
53	0xbd332d53	-0.043744396
54	0xbd3f84f8	-0.04675767
55	0x3af386e0	0.0018579625
56	0x3bdaff07	0.0066832337
57	0x3ca2ad27	0.019857956
58	0xbc20b412	-0.009808557
59	0x3c890379	0.016725289
60	0xbd2399ce	-0.0399416
61	0x3c43738d	0.011929405
62	0xbd01015a	-0.03149543
63	0x3d2ae5d8	0.041723102
64	0x3a2121ed	0.0006146718
65	0x3c5ab1f1	0.013348089
66	0xbb0829a1	-0.0020776766
67	0xbd313215	-0.043260653
68	0x3b853f94	0.004066417
69	0x3cd36d9e	0.025809105
70	0x3cd859d1	0.026410015
71	0xbac9e79b	-0.0015404107
72	0xbc31816a	-0.010834077
73	0xbcb6b703	-0.022304064
74	0xbcac53f2	-0.021036122
75	0x3d413e24	0.047178403
76	0x3d614a0f	0.05500227
77	0x3d81798a	0.0632201
78	0x3cab4e56	0.020911377
79	0xbb6a35bc	-0.0035737595
80	0x3c4b574c	0.01241095
81	0x3ca34b0a	0.019933242
82	0x3b3dcc28	0.0028960798
83	0xbd244db0	-0.04011315
84	0xbc74a267	-0.014931298
85	0xbc466a3b	-0.012110288
86	0x3c65069f	0.013978629
87	0x3bd616d0	0.006533481
88	0xbcd4be0e	-0.025969531
89	0xb97add49	-0.00023924293
90	0x3d34bbbb	0.044124346
91	0x3c0b061f	0.008485346
92	0x3a396b43	0.0007073173
93	0x3d10bd78	0.03533694
94	0x3cf16b29	0.029470043
95	0xbce69707	-0.028148187
96	0xbd105060	-0.0352329
97	0xba22a579	-0.0006204467
98	0x3cac6367	0.021043492
99	0xbd07e409	-0.033176456
100	0xbccc1c95	-0.024915973
101	0x3c767f64	0.015045021
102	0x3d2817e0	0.041038394
103	0x3b82192b	0.0039702854
104	0xbc4407c4	-0.011964742
105	0x3d655e3a	0.055998065
106	0xbb0ec52b	-0.0021785002
107	0x3d2c0344	0.0419953
108	0x3ca303a8	0.019899204
109	0xbc88cf8d	-0.01670053
110	0x39c5d4af	0.0003773323
111	0xbc37f7ab	-0.011228482
112	0xbd26b602	-0.04070092
113	0xbc80484a	-0.01565947
114	0xbc08eb3b	-0.008356865
115	0x3ccba941	0.02486098
116	0x3cfaaea8	0.03060086
117	0x3d086e62	0.033308394
118	0x3cf8a701	0.030353071
119	0xbc80d31d	-0.015725667
120	0xbc0b270a	-0.008493194
121	0x3b015809	0.001973631
122	0x37d7efbd	2.5741634e-05
123	0xbcb5707a	-0.02214836
124	0x3ccd6289	0.0250714
125	0xbc0610aa	-0.008182684
126	0xbc7b80cf	-0.015350535
127	0x3bcbcd71	0.006219559
128	0xbd0b13da	-0.03395448
129	0xbbddc77c	-0.006768165
130	0x3bed6b9b	0.0072454936
131	0x3d1c70e8	0.038193613
132	0x3c19ac98	0.009379528
133	0x3ccb211b	0.02479606
134	0x3d7fcdbc	0.062452063
135	0x3d351374	0.044208005
136	0x3d987de5	0.074458875
137	0xbc038197	-0.008026502
138	0x3b94b928	0.004538674
139	0xbcaf5df4	-0.021407105
140	0xbbd0c860	-0.006371543
141	0x3ab123d2	0.0013514704
142	0xbd0fc2bc	-0.035097823
143	0x3c94e3fb	0.018175116
144	0x3d979e9a	0.07403298
145	0x3d77105a	0.06031833
146	0x3ccaad1d	0.02474075
147	0xbd12ff81	-0.0358882
148	0x3c973276	0.018456679
149	0x3c801b40	0.015637994
150	0xbce406b0	-0.02783522
151	0x3bb8861b	0.005631221
152	0xbd1f6fca	-0.03892497
153	0x3891bf62	6.9497866e-05
154	0xbc9722bc	-0.01844918
155	0xbce5b26e	-0.028039183
156	0xbd2e196e	-0.04250472
157	0x3d0986cb	0.033575814
158	0x3c80ea53	0.015736734
159	0x3c88f064	0.01671619
160	0xbb81d017	-0.003961574
161	0x3b621c76	0.0034501827
162	0x3cf342ac	0.029694878
163	0x3d5bfa77	0.05370566
164	0x3c2a55d6	0.010396441
165	0xbb9e2e53	-0.0048272996
166	0x3b415012	0.0029497189
167	0x3ca9a7c6	0.020709883
168	0xbc9dba9c	-0.019254021
169	0xbd0b6705	-0.034033794
170	0x3d45a189	0.048249755
171	0x3d4c5db3	0.049894046
172	0x3d84adce	0.06478463
173	0x3d3bdd67	0.045865443
174	0x3cd97ac2	0.026547793
175	0xbc033850	-0.008009031
176	0x3d76e697	0.0602785
177	0x3c6d2b15	0.014475604
178	0xbc835cbc	-0.01603543
179	0x3d14e44a	0.036350526
180	0x3b85b07b	0.004079876
181	0x3bd56a8a	0.0065129446
182	0xbd127039	-0.035751555
183	0xbc7042f9	-0.014664405
184	0xbbdf637f	-0.006817281
185	0x3b82b82a	0.003989239
186	0x3cd00233	0.025391674
187	0x3d23ec78	0.040020436
188	0x3c94c1a3	0.01815874
189	0xbc5295a3	-0.012853059
190	0x3d5b787e	0.053581707
191	0x3d80f3ef	0.06296527
192	0x3d8a1141	0.06741572
193	0xbb87f48f	-0.0041490267
194	0x3b5e088c	0.0033879606
195	0x3c266b18	0.010157369
196	0xbc524fee	-0.01283644
197	0x3c464dea	0.012103537
198	0x3d2c8508	0.042119056
199	0xba1e8f12	-0.0006048541
200	0x3d7f23a8	0.062289864
201	0x3c682969	0.014170029
202	0x3d3acc22	0.045604832
203	0x3d1a1246	0.037615083
204	0x3d1e4219	0.038637254
205	0x3cd4b2c4	0.025964148
206	0xbd17ad24	-0.037030354
207	0xba400ca6	-0.00073261035
208	0x3c91bbb6	0.017789703
209	0x3c2d0506	0.01056028
210	0xbc2bc864	-0.010484789
211	0xbc138b6c	-0.009005409
212	0xbc0a2903	-0.0084326295
213	0x3d0889c9	0.033334527
214	0x3cdb089d	0.026737506
215	0x3d8ddfc3	0.06927445
216	0x3d0d131c	0.034442052
217	0x3b8e93f8	0.0043511353
218	0x3d7530aa	0.059860863
219	0x3d93ad01	0.07210732
220	0x3d83021b	0.06396886
221	0xbc0fc9ec	-0.008776169
222	0xbd016397	-0.031589117
223	0xbcacad6d	-0.02107879
224	0xb9bac1c0	-0.0003562104
225	0xbc81d114	-0.015846767
226	0x3d585d80	0.052823544
227	0x3c236ff3	0.009975421
228	0x3d6c006d	0.057617594
229	0x3dae2e95	0.085049786
230	0x3d2d0a40	0.042246103
231	0x3cafa76d	0.02144214
232	0x3d74f033	0.059799384
233	0x3d822499	0.06354637
234	0x3ca4e0c7	0.020126713
235	0xbbe5a62b	-0.007008334
236	0x3a23161c	0.0006221251
237	0xbd02b617	-0.031911936
238	0xbca57f99	-0.020202445
239	0x3cec37ea	0.028835256
240	0xbccd60db	-0.025070598
241	0x3c84ae89	0.016196506
242	0x3c8a9bb2	0.016919944
243	0x3d84f99d	0.064929225
244	0x3c780c1d	0.015139607
245	0x3d222deb	0.039594572
246	0x3d34964e	0.044088654
247	0x3d45d4b7	0.048298564
248	0x3c78548c	0.015156876
249	0x3c8ea48f	0.017412452
250	0xbcd33ea6	-0.025786709
251	0xbbfa74e3	-0.0076433285
252	0xbd1c0195	-0.038087446
253	0xbc5f1006	-0.01361466
254	0x3b115cf3	0.0022180646
255	0x3ca43d60	0.020048797

model.0.bias f4 [10]
0	0x3c16147d	0.009160158
1	0x3c313376	0.010815492
2	0xbca3cfb6	-0.019996505
3	0xbcf41f6e	-0.029800143
4	0xbcc1bdc6	-0.023650061
5	0xbc0273e5	-0.007962202
6	0xbc4d2d29	-0.012522974
7	0x3b0ba6aa	0.0021309056
8	0x3c9db397	0.019250674
9	0x3ab25fec	0.0013608909
